[2023-05-10 18:02:12,869][__main__][INFO] - Net(
  (fc1): Linear(in_features=17, out_features=68, bias=True)
  (fc2): Linear(in_features=68, out_features=68, bias=True)
  (fc3): Linear(in_features=68, out_features=68, bias=True)
  (fc4): Linear(in_features=68, out_features=68, bias=True)
  (fc5): Linear(in_features=68, out_features=68, bias=True)
  (fc6): Linear(in_features=68, out_features=68, bias=True)
  (fc7): Linear(in_features=68, out_features=68, bias=True)
  (fc8): Linear(in_features=68, out_features=68, bias=True)
  (fc9): Linear(in_features=68, out_features=68, bias=True)
  (fc10): Linear(in_features=68, out_features=68, bias=True)
  (fc11): Linear(in_features=68, out_features=68, bias=True)
  (fc12): Linear(in_features=68, out_features=68, bias=True)
  (fc13): Linear(in_features=68, out_features=68, bias=True)
  (fc14): Linear(in_features=68, out_features=68, bias=True)
  (fc15): Linear(in_features=68, out_features=68, bias=True)
  (fc16): Linear(in_features=68, out_features=1, bias=True)
  (act1): ReLU()
)
[2023-05-10 18:02:13,702][__main__][INFO] - Iteration 0, epoch 0, train accuracy 0.49, loss 0.5003
[2023-05-10 18:02:17,346][__main__][INFO] - Test accuracy - 0.4976079545454546
[2023-05-10 18:02:17,379][__main__][INFO] - Iteration 0, epoch 1, train accuracy 0.54, loss 0.4990
[2023-05-10 18:02:21,084][__main__][INFO] - Test accuracy - 0.4976079545454546
…
